…
7 [00:00<00:00, 1862.10it/s, Materializing param=model.vision_tower.vision_model.pre_layrnorm.weight]Loading weights: 100%|██████████| 687/687 [00:00<00:00, 1862.10it/s, Materializing param=model.vision_tower.vision_model.pre_layrnorm.weight]Loading weights: 100%|██████████| 687/687 [00:00<00:00, 2070.08it/s, Materializing param=model.vision_tower.vision_model.pre_layrnorm.weight]
LlavaNextForConditionalGeneration(
  (model): LlavaNextModel(
    (vision_tower): CLIPVisionModel(
      (vision_model): CLIPVisionTransformer(
        (embeddings): CLIPVisionEmbeddings(
          (patch_embedding): Conv2d(3, 1024, kernel_size=(14, 14), stride=(14, 14), bias=False)
          (position_embedding): Embedding(577, 1024)
        )
        (pre_layrnorm): LayerNorm((1024,), eps=1e-05, elementwise_affine=True)
        (encoder): CLIPEncoder(
          (layers): ModuleList(
            (0-23): 24 x CLIPEncoderLayer(
              (self_attn): CLIPAttention(
                (k_proj): Linear(in_features=1024, out_features=1024, bias=True)
                (v_proj): Linear(in_features=1024, out_features=1024, bias=True)
                (q_proj): Linear(in_features=1024, out_features=1024, bias=True)
                (out_proj): Linear(in_features=1024, out_features=1024, bias=True)
              )
              (layer_norm1): LayerNorm((1024,), eps=1e-05, elementwise_affine=True)
              (mlp): CLIPMLP(
                (activation_fn): QuickGELUActivation()
                (fc1): Linear(in_features=1024, out_features=4096, bias=True)
                (fc2): Linear(in_features=4096, out_features=1024, bias=True)
              )
              (layer_norm2): LayerNorm((1024,), eps=1e-05, elementwise_affine=True)
            )
          )
        )
        (post_layernorm): LayerNorm((1024,), eps=1e-05, elementwise_affine=True)
      )
    )
    (multi_modal_projector): LlavaNextMultiModalProjector(
      (linear_1): Linear(in_features=1024, out_features=4096, bias=True)
      (act): GELUActivation()
      (linear_2): Linear(in_features=4096, out_features=4096, bias=True)
    )
    (language_model): MistralModel(
      (embed_tokens): Embedding(32064, 4096)
      (layers): ModuleList(
        (0-31): 32 x MistralDecoderLayer(
          (self_attn): MistralAttention(
            (q_proj): Linear(in_features=4096, out_features=4096, bias=False)
            (k_proj): Linear(in_features=4096, out_features=1024, bias=False)
            (v_proj): Linear(in_features=4096, out_features=1024, bias=False)
            (o_proj): Linear(in_features=4096, out_features=4096, bias=False)
          )
          (mlp): MistralMLP(
            (gate_proj): Linear(in_features=4096, out_features=14336, bias=False)
            (up_proj): Linear(in_features=4096, out_features=14336, bias=False)
            (down_proj): Linear(in_features=14336, out_features=4096, bias=False)
            (act_fn): SiLUActivation()
          )
          (input_layernorm): MistralRMSNorm((4096,), eps=1e-05)
          (post_attention_layernorm): MistralRMSNorm((4096,), eps=1e-05)
        )
      )
      (norm): MistralRMSNorm((4096,), eps=1e-05)
      (rotary_emb): MistralRotaryEmbedding()
    )
  )
  (lm_head): Linear(in_features=4096, out_features=32064, bias=False)
)


====================


LlavaNextConfig {
  "architectures": [
    "LlavaNextForConditionalGeneration"
  ],
  "dtype": "bfloat16",
  "ignore_index": -100,
  "image_grid_pinpoints": [
    [
      336,
      672
    ],
    [
      672,
      336
    ],
    [
      672,
      672
    ],
    [
      1008,
      336
    ],
    [
      336,
      1008
…
