…
.feed_forward.up_proj.weight]Loading weights: 100%|██████████| 531/531 [00:00<00:00, 1476.60it/s, Materializing param=model.vision_tower.transformer.layers.23.ffn_norm.weight]            Loading weights: 100%|██████████| 531/531 [00:00<00:00, 1476.60it/s, Materializing param=model.vision_tower.transformer.layers.23.ffn_norm.weight]Loading weights: 100%|██████████| 531/531 [00:00<00:00, 2249.05it/s, Materializing param=model.vision_tower.transformer.layers.23.ffn_norm.weight]
Mistral3ForConditionalGeneration(
  (model): Mistral3Model(
    (vision_tower): PixtralVisionModel(
      (patch_conv): Conv2d(3, 1024, kernel_size=(14, 14), stride=(14, 14), bias=False)
      (ln_pre): PixtralRMSNorm((1024,), eps=1e-05)
      (transformer): PixtralTransformer(
        (layers): ModuleList(
          (0-23): 24 x PixtralAttentionLayer(
            (attention_norm): PixtralRMSNorm((1024,), eps=1e-05)
            (feed_forward): PixtralMLP(
              (gate_proj): Linear(in_features=1024, out_features=4096, bias=False)
              (up_proj): Linear(in_features=1024, out_features=4096, bias=False)
              (down_proj): Linear(in_features=4096, out_features=1024, bias=False)
              (act_fn): SiLUActivation()
            )
            (attention): PixtralAttention(
              (k_proj): Linear(in_features=1024, out_features=1024, bias=False)
              (v_proj): Linear(in_features=1024, out_features=1024, bias=False)
              (q_proj): Linear(in_features=1024, out_features=1024, bias=False)
              (o_proj): Linear(in_features=1024, out_features=1024, bias=False)
            )
            (ffn_norm): PixtralRMSNorm((1024,), eps=1e-05)
          )
        )
      )
      (patch_positional_embedding): PixtralRotaryEmbedding()
    )
    (multi_modal_projector): Mistral3MultiModalProjector(
      (norm): Mistral3RMSNorm((1024,), eps=1e-05)
      (patch_merger): Mistral3PatchMerger(
        (merging_layer): Linear(in_features=4096, out_features=1024, bias=False)
      )
      (linear_1): Linear(in_features=1024, out_features=4096, bias=False)
      (act): GELUActivation()
      (linear_2): Linear(in_features=4096, out_features=4096, bias=False)
    )
    (language_model): Ministral3Model(
      (embed_tokens): Embedding(131072, 4096, padding_idx=11)
      (layers): ModuleList(
        (0-33): 34 x Ministral3DecoderLayer(
          (self_attn): Ministral3Attention(
            (q_proj): Linear(in_features=4096, out_features=4096, bias=False)
            (k_proj): Linear(in_features=4096, out_features=1024, bias=False)
            (v_proj): Linear(in_features=4096, out_features=1024, bias=False)
            (o_proj): Linear(in_features=4096, out_features=4096, bias=False)
          )
          (mlp): Ministral3MLP(
            (gate_proj): Linear(in_features=4096, out_features=14336, bias=False)
            (up_proj): Linear(in_features=4096, out_features=14336, bias=False)
            (down_proj): Linear(in_features=14336, out_features=4096, bias=False)
            (act_fn): SiLUActivation()
          )
          (input_layernorm): Ministral3RMSNorm((4096,), eps=1e-05)
          (post_attention_layernorm): Ministral3RMSNorm((4096,), eps=1e-05)
        )
      )
      (norm): Ministral3RMSNorm((4096,), eps=1e-05)
      (rotary_emb): Ministral3RotaryEmbedding()
    )
  )
  (lm_head): Linear(in_features=4096, out_features=131072, bias=False)
)


====================


Mistral3Config {
  "architectures": [
    "Mistral3ForConditionalGeneration"
  ],
  "dtype": "bfloat16",
  "image_token_index": 10,
  "model_type": "mistral3",
  "multimodal_projector_bias": false,
  "projector_hidden_act": "gelu",
  "spatial_merge_size": 2,
  "text_config": {
    "attention_dropout": 0.0,
    "bos_token_id": 1,
…
